data.pth (torch, 6463 bytes, 6 tensors)

l1.weight f4 [8, 78]
0.42743203 0.51516044 -0.20152073 -0.3158476 -0.5315514 -0.6606472 0.35996944 0.11239043
0.13577063 -0.4051443 -0.4827596 -0.26056316 -0.41833407 -0.30366305 0.72498965 -0.3445352
0.043193474 0.66556704 0.26391634 -0.3164663 0.50423604 -0.2510143 0.116815396 0.5233463
0.92562044 0.5621601 -0.61668825 -0.74393255 0.3782688 -0.6911919 -0.7438193 0.25118437
0.4583251 0.57549644 0.6803274 0.60970837 0.06734716 0.23518185 -0.46801725 0.057111774
-0.41278517 0.9078043 0.30581865 0.6342121 0.40468395 -0.44822043 -0.36767605 0.4024965
0.4105288 0.22782354 -0.09886816 -0.12179627 1.1315032 -0.35860893 -0.40081668 0.19563964
0.22133411 0.43686223 0.50830907 0.24548897 0.65332 -0.1837513 0.22277589 0.39116958
0.948544 0.5182665 0.2993234 -0.3098829 0.5585102 0.3219364 -0.48854843 0.3589254
0.45246834 0.50637525 0.16348243 -0.36203164 0.51013684 -0.13866062 -0.34956965 -0.8468888
0.016885873 0.11606809 0.65195084 0.39037248 -0.24713916 0.4172478 -0.6044617 -0.033848368
-0.009226352 -0.36286828 -0.08390242 0.5253313 -0.15109542 1.1716722 -0.19188559 -0.21077959
-0.26581514 0.031621102 -0.032205015 0.44980502 -0.60440964 0.39224547 -0.51849955 0.006288195
1.5170956 0.7212629 -0.05795534 0.7307437 0.65057915 0.28925502 -0.10412187 -1.1712717
0.23037799 0.72710043 0.24763842 -0.20916098 0.11831837 0.16501933 0.13205212 -0.44856143
-0.22362824 -0.14677028 -0.16232093 -0.07421212 0.04118762 0.07310273 -0.86616534 0.46684915
0.2143265 -0.49358204 -0.4188237 -0.10106545 -0.029162621 0.21278122 -0.32098144 -0.15240197
-0.23001476 0.16925408 -0.4482869 -0.16895868 0.36522195 0.5544589 -0.38621467 -0.27008614
1.1031116 0.02300281 -0.42543054 -0.12035206 0.23119386 -0.27240497 -0.20018026 -0.19808552
-0.14987883 -0.11967718 0.115857705 -0.05988494 -0.29855138 -0.59777665 -0.04030414 -0.2701553
-0.063309364 0.113942444 -0.19279024 0.37269637 -0.61512315 -0.15767534 -0.18532203 -0.2996755
-0.21109378 0.08358464 0.06968272 0.86442345 -0.060421273 0.10219669 -0.03475674 0.03896999
0.111622095 0.13369359 -0.6151207 0.48560464 0.58464426 0.122580566 -1.0358711 0.26354662
-0.21028195 0.19375083 0.2382828 0.54058236 0.072719276 0.8768412 0.5149783 1.020442
0.0057820706 -0.16589722 -0.17329516 -0.19331473 -0.031107767 0.5572397 -0.22130282 0.16533393
0.018798439 -0.22358578 -0.04822246 0.094902046 -0.71455383 0.7192761 -0.21594931 -0.3678486
1.1702921 -0.22706777 -0.16709171 0.2249464 -0.33180213 0.2975198 0.055063374 0.30823475
-0.22005135 -0.09455752 0.08763903 0.6886035 -0.53275836 -0.09584461 0.20923737 -0.22442773
-0.61515665 -0.10642186 -0.05061962 -0.27455726 -0.10357913 0.1667378 0.2390218 -0.13662519
0.20611645 -0.061830558 -0.3227162 0.20533213 0.27891305 -0.50023395 0.5216079 0.36998144
-0.002483344 -0.117047265 0.37262484 -0.124159254 -0.58670217 -0.62355095 -0.36980674 0.6437803
0.41210878 -0.38586098 0.66856706 0.5484669 0.048459902 0.24865891 0.44228327 0.7384987
00000000: 5fd8 da3e 8ee1 033f 735b 4ebe c7b6 a1be
00000010: c113 08bf 2d20 29bf ea4d b83e f42c e63d
00000020: 7507 0b3e 136f cfbe 442c f7be 8968 85be
00000030: e22f d6be b979 9bbe ec98 393f eb66 b0be
00000040: a4eb 303d 9a62 2a3f 0b20 873e df07 a2be
00000050: 9d15 013f f284 80be e93c ef3d 06fa 053f
00000060: 76f5 6c3f b9e9 0f3f 48df 1dbf 5d72 3ebf
00000070: 73ac c13e f4f1 30bf f16a 3ebf 3d9b 803e
00000080: 96a9 ea3e bc53 133f f029 2e3f d915 1c3f
00000090: 4fed 893d 83d3 703e f59f efbe 09ee 693d
000000a0: 9458 d3be dd65 683f 4394 9c3e b95b 223f
000000b0: bc32 cf3e 267d e5be 0940 bcbe 0514 ce3e
000000c0: d530 d23e 934a 693e 647b cabd 5370 f9bd
000000d0: 19d5 903f 979b b7be d837 cdbe c255 483e
000000e0: 69a5 623e 68ac df3e 8b20 023f 7661 7b3e
000000f0: fb3f 273f 4d29 3cbe 5d1f 643e 6147 c83e
00000100: c8d3 723f 1dad 043f eb40 993e f9a8 9ebe
00000110: 86fa 0e3f d9d4 a43e 0523 fabe 12c5 b73e
00000120: eea9 e73e cfa1 013f f067 273e 365c b9be
00000130: 5498 023f 0dfd 0dbe cbfa b2be b4cd 58bf
00000140: 3e54 8a3c 1bb5 ed3d 40e6 263f e7de c73e
00000150: 0c12 7dbe 81a1 d53e 01be 1abf 96a4 0abd
00000160: 202a 17bc dfc9 b9be 08d5 abbd 1d7c 063f
00000170: c2b8 1abe 5bf9 953f a87d 44be 9bd6 57be
00000180: ec18 88be 2185 013d 68e9 03bd d84c e63e
00000190: 97ba 1abf 66d4 c83e 63bc 04bf 340d ce3b
000001a0: 3030 c23f afa4 383f 9462 6dbd 0512 3b3f
000001b0: 5b8c 263f 3c19 943e d93d d5bd 3bec 95bf
000001c0: 35e8 6b3e 4123 3a3f ed94 7d3e 4c2e 56be
000001d0: e750 f23d d4fa 283e ac38 073e d8a9 e5be
000001e0: cdfe 64be f34a 16be 7537 26be 86fc 97bd
000001f0: 5ab4 283d e2b6 953d 03bd 5dbf da06 ef3e
00000200: 6878 5b3e c9b6 fcbe 0f70 d6be 67fb cebd
00000210: 73e6 eebc 52e3 593e ae57 a4be 430f 1cbe
00000220: fd88 6bbe f150 2d3e dc85 e5be 8103 2dbe
00000230: 5ffe ba3e 05f1 0d3f eebd c5be bb48 8abe
00000240: c332 8d3f 6470 bc3c 08d2 d9be 247b f6bd
00000250: 15be 6c3e aa78 8bbe 0efc 4cbe eed6 4abe
00000260: d679 19be 4f19 f5bd ce46 ed3d e949 75bd
00000270: badb 98be e407 19bf f415 25bd cc51 8abe
00000280: 57a8 81bd a85a e93d ce6a 45be 0fd2 be3e
00000290: b678 1dbf a575 21be 0fc5 3dbe 116f 99be
000002a0: f828 58be 6c2e ab3d d0b5 8e3d db4a 5d3f
000002b0: 4c7c 77bd 804c d13d 155d 0ebd ff9e 1f3d
000002c0: 209a e43d f9e6 083e 8d78 1dbf 2ca1 f83e
000002d0: 3fab 153f 850b fb3d 6d97 84bf 95ef 863e
000002e0: 2754 57be 9e66 463e 6800 743e 9b63 0a3f
000002f0: d8ed 943d aa78 603f 9ed5 033f d89d 823f
00000300: 8677 bd3b f6e0 29be 4974 31be 4cf4 45be
00000310: b7d5 febc 43a7 0e3f 359d 62be 4c4d 293e
00000320: 2fff 993c acf3 64be ea84 45bd 015c c23d
00000330: 00ed 36bf 7a22 383f d121 5dbe a756 bcbe
00000340: 22cc 953f 7484 68be 171a 2bbe 5958 663e
00000350: f8e1 a9be 8454 983e 228a 613d f2d0 9d3e
00000360: 2455 61be 5fa7 c1bd 177c b33d 5248 303f
00000370: da62 08bf 2e4a c4bd 5242 563e 62d0 65be
00000380: e87a 1dbf b4f3 d9bd 8556 4fbd c592 8cbe
00000390: 4b21 d4bd 50bd 2a3e 21c2 743e 79e7 0bbe
000003a0: 3110 533e 0a42 7dbd 0f3b a5be 9642 523e
000003b0: b1cd 8e3e 550f 00bf 1888 053f 356e bd3e
000003c0: 99bf 22bb 7ab6 efbd afc8 be3e 3547 febd
000003d0: 1d32 16bf 09a1 1fbf 4f57 bdbe c9ce 243f
000003e0: ecff d23e 928f c5be 3627 2b3f 5468 0c3f
000003f0: e47d 463d 71a0 7e3e f472 e23e 400e 3d3f

l1.bias f4 [8]
1.1778201 0.60433805 0.6151147 0.6838112 1.132717 0.46437687 0.45957774 1.0627459
00000000: cfc2 963f e6b5 1a3f 2878 1d3f 400e 2f3f
00000010: dffc 903f cec2 ed3e c64d eb3e 0f08 883f

l2.weight f4 [8, 8]
0.5150786 0.63993114 1.1892077 1.025193 0.35243368 0.4437497 1.5055041 1.0159748
1.5217826 -0.8027728 -0.96773696 -1.1221343 1.2819285 0.7709018 0.9599181 -0.7708667
1.198113 -1.8946804 -1.7648716 -0.17421253 0.04915932 -0.09954774 -0.5627659 1.4720045
-0.5546102 0.36478782 -1.0947863 1.56349 0.22672682 -0.66350925 1.3323687 1.627053
1.3711219 0.11562419 1.5244658 0.13741758 -0.8339429 -1.3802938 -1.1302971 0.9793163
-1.005807 0.6267668 0.52127665 -0.33037695 -0.30732262 0.86425793 -0.2930074 1.3520473
0.39883754 1.7896163 0.67296386 -0.31139085 1.7477924 -1.2680324 -0.880829 0.6604164
0.6577749 -1.1216234 0.92767096 1.4552826 -0.64923066 1.7883343 0.310734 0.5842384
00000000: 31dc 033f 87d2 233f f537 983f 8639 833f
00000010: 3072 b43e 2933 e33e 5cb4 c03f 760b 823f
00000020: c6c9 c23f 8582 4dbf 9cbd 77bf 19a2 8fbf
00000030: 3c16 a43f d259 453f 31bd 753f 8557 45bf
00000040: c45b 993f e384 f2bf 50e7 e1bf c564 32be
00000050: 485b 493d afdf cbbd 6d11 10bf a56a bc3f
00000060: effa 0dbf 78c5 ba3e f521 8cbf 7120 c83f
00000070: 132b 683e bedb 29bf 0f8b aa3f 4643 d03f
00000080: ec80 af3f 60cc ec3d b221 c33f 32b7 0c3e
00000090: 487d 55bf 78ad b0bf 93ad 90bf 79b4 7a3f
000000a0: 49be 80bf ca73 203f 6372 053f 2b27 a9be
000000b0: 6459 9dbe 0240 5d3f 1105 96be e30f ad3f
000000c0: 6f34 cc3e 2612 e53f 5c47 2c3f 9f6e 9fbe
000000d0: a9b7 df3f e34e a2bf 027e 61bf 0d11 293f
000000e0: f063 283f 5b91 8fbf d87b 6d3f b346 ba3f
000000f0: fb33 26bf 23e8 e43f 8718 9f3e a690 153f

l2.bias f4 [8]
-0.24258523 0.78264475 1.0337594 0.76489156 0.0620803 0.17525811 0.98994786 0.42591628
00000000: 4368 78be 685b 483f 3a52 843f efcf 433f
00000010: ea47 7e3d dd76 333e 396d 7d3f b311 da3e

l3.weight f4 [15, 8]
0.178388 -1.6939808 -0.970926 -1.1927731 0.53521734 0.96317035 0.5114786 -1.2759696
0.41883776 -0.70887846 -0.97190547 0.54440236 -0.89014584 -1.9243995 0.7055893 -1.7996852
0.6480193 -0.7893627 -1.1345572 -0.8714875 0.1638157 -0.771082 -1.6593385 0.77986073
0.45282623 0.5531133 -1.2662784 -1.7038624 -1.0024375 -1.5638429 0.29065347 -0.5552461
-0.84124917 0.3748153 0.93444943 -1.6668704 1.2035524 -1.0349399 -0.38525262 -0.6194956
-0.3250855 0.9180224 0.59880435 -1.9688956 -1.1297406 -1.0438077 -1.835744 0.60689324
-0.1964757 -0.15315679 -1.4132893 -1.9543155 0.549042 -1.2769753 1.0599327 -2.3171482
-0.39816028 -1.4414387 0.44194 -0.023074651 0.62421566 -1.2423456 -0.66675735 0.12204445
0.024368923 -1.1287093 -0.4169648 0.50824237 -1.5205497 0.87854147 -2.2404847 0.049672127
-0.4787719 -0.10156821 0.75233895 0.5641295 -1.943725 -2.3901012 -0.4851901 0.3412972
0.03390357 -2.0368562 -1.4434587 0.19865008 -1.5014292 0.06079873 0.31343788 0.3407433
0.2012521 -1.7466644 -0.26471886 0.89831626 -0.2928919 -1.5778332 -1.9690871 0.039040785
0.3705994 -1.4233583 -1.2922124 -2.1847634 0.8472347 -2.2209754 0.09153143 0.19297676
-0.644349 -1.091885 0.7123221 0.25923452 -0.16149957 1.009369 0.0060430756 -1.2037796
-0.8800162 0.84066147 0.73870003 -0.6829075 -0.7401031 -1.0506889 0.7948192 -2.4651313
00000000: 58ab 363e 5dd4 d8bf 9b8e 78bf caac 98bf
00000010: 0104 093f 5592 763f 43f0 023f f952 a3bf
00000020: e771 d63e 0f79 35bf ccce 78bf f45d 0b3f
00000030: 99e0 63bf b952 f6bf 80a1 343f 165c e6bf
00000040: 98e4 253f ad13 4abf 2c39 91bf ce19 5fbf
00000050: 4ebf 273e a165 45bf 3465 d4bf f4a4 473f
00000060: d7d8 e73e d598 0d3f 6915 a2bf 2a18 dabf
00000070: df4f 80bf 012c c8bf 88d0 943e 9c24 0ebf
00000080: 1b5c 57bf cae7 bf3e 1438 6f3f 025c d5bf
00000090: 010e 9a3f e978 84bf d53f c5be 4397 1ebf
000000a0: 9b71 a6be 8403 6b3f 3e4b 193f c504 fcbf
000000b0: 579b 90bf 7e9b 85bf a9f9 eabf 5b5d 1b3f
000000c0: ed30 49be 22d5 1cbe aae6 b4bf 0327 fabf
000000d0: 048e 0c3f ed73 a3bf e0ab 873f 284c 14c0
000000e0: aadb cbbe 1081 b8bf f645 e23e 0d07 bdbc
000000f0: 99cc 1f3f 2e05 9fbf 9cb0 2abf 71f2 f93d
00000100: 56a1 c73c 8c79 90bf 697c d5be 2c1c 023f
00000110: 5fa1 c2bf 18e8 603f 1a64 0fc0 0075 4b3d
00000120: 9721 f5be fe02 d0bd 4999 403f ca6a 103f
00000130: fbcb f8bf 6bf7 18c0 d66a f8be 82be ae3e
00000140: 78de 0a3d da5b 02c0 41c3 b8bf ed6a 4b3e
00000150: d52e c0bf 1708 793d ee7a a03e e875 ae3e
00000160: 0815 4e3e b392 dfbf 3b89 87be 0ef8 653f
00000170: edf5 95be 70f6 c9bf 0c0b fcbf 3be9 1f3d
00000180: 34bf bd3e 9b30 b6bf 3767 a5bf 2ad3 0bc0
00000190: 60e4 583f 7624 0ec0 d574 bb3d b39b 453e
000001a0: 0ef4 24bf e3c2 8bbf be5a 363f 63ba 843e
000001b0: 2560 25be 0133 813f fe04 c63b 7315 9abf
000001c0: be48 61bf 9735 573f 721b 3d3f 07d3 2ebf
000001d0: 6677 3dbf f97c 86bf 4579 4b3f b6c4 1dc0

l3.bias f4 [15]
-0.24462223 -0.4025458 -0.0063998755 0.2988804 -0.12761249 0.20866348 0.3953024 -0.38923118
-0.39054683 0.5157369 0.68470573 -0.039361503 0.059352983 -0.16513002 0.09618421
00000000: 407e 7abe 7c1a cebe 0cb6 d1bb da06 993e
00000010: d9ac 02be e1ab 553e 1465 ca3e 4f49 c7be
00000020: c1f5 c7be 5507 043f e048 2f3f 8739 21bd
00000030: 1d1c 733d d817 29be 3afc c43d
